__________________________________________________________________________________________________
Layer (type)                    Output Shape         Param #     Connected to                     
==================================================================================================
input_1 (InputLayer)            (None, 243, 50)      0                                            
__________________________________________________________________________________________________
input_2 (InputLayer)            (None, 736, 50)      0                                            
__________________________________________________________________________________________________
gru_1 (GRU)                     (None, 64)           22080       input_1[0][0]                    
__________________________________________________________________________________________________
gru_2 (GRU)                     (None, 64)           22080       input_2[0][0]                    
__________________________________________________________________________________________________
dense_1 (Dense)                 (None, 64)           4160        gru_1[0][0]                      
__________________________________________________________________________________________________
dense_2 (Dense)                 (None, 64)           4160        gru_2[0][0]                      
__________________________________________________________________________________________________
concatenate_1 (Concatenate)     (None, 128)          0           dense_1[0][0]                    
                                                                 dense_2[0][0]                    
__________________________________________________________________________________________________
dense_3 (Dense)                 (None, 1)            129         concatenate_1[0][0]              
__________________________________________________________________________________________________
dot_1 (Dot)                     (None, 1)            0           dense_1[0][0]                    
                                                                 dense_2[0][0]                    
__________________________________________________________________________________________________
add_1 (Add)                     (None, 1)            0           dense_3[0][0]                    
                                                                 dot_1[0][0]                      
==================================================================================================
Total params: 52,609
Trainable params: 52,609
Non-trainable params: 0
__________________________________________________________________________________________________
…
